…
ent=randaugment, erasing=0.4, crop_fraction=1.0, cfg=None, tracker=botsort.yaml, save_dir=runs/classify/train7
train: /content/dataset/Plant_leaf_diseases_dataset/train... found 38584 images in 39 classes ✅ 
val: /content/dataset/Plant_leaf_diseases_dataset/val... found 8340 images in 39 classes ✅ 
test: /content/dataset/Plant_leaf_diseases_dataset/test... found 8335 images in 39 classes ✅ 
Overriding model.yaml nc=1000 with nc=39

                   from  n    params  module                                       arguments                     
  0                  -1  1       464  ultralytics.nn.modules.conv.Conv             [3, 16, 3, 2]                 
  1                  -1  1      4672  ultralytics.nn.modules.conv.Conv             [16, 32, 3, 2]                
  2                  -1  1      7360  ultralytics.nn.modules.block.C2f             [32, 32, 1, True]             
  3                  -1  1     18560  ultralytics.nn.modules.conv.Conv             [32, 64, 3, 2]                
  4                  -1  2     49664  ultralytics.nn.modules.block.C2f             [64, 64, 2, True]             
  5                  -1  1     73984  ultralytics.nn.modules.conv.Conv             [64, 128, 3, 2]               
  6                  -1  2    197632  ultralytics.nn.modules.block.C2f             [128, 128, 2, True]           
  7                  -1  1    295424  ultralytics.nn.modules.conv.Conv             [128, 256, 3, 2]              
  8                  -1  1    460288  ultralytics.nn.modules.block.C2f             [256, 256, 1, True]           
  9                  -1  1    380199  ultralytics.nn.modules.head.Classify         [256, 39]                     
YOLOv8n-cls summary: 99 layers, 1488247 parameters, 1488247 gradients, 3.4 GFLOPs
Transferred 156/158 items from pretrained weights
TensorBoard: Start with 'tensorboard --logdir runs/classify/train7', view at http://localhost:6006/
AMP: running Automatic Mixed Precision (AMP) checks with YOLOv8n...
AMP: checks passed ✅
train: Scanning /content/dataset/Plant_leaf_diseases_dataset/train... 38584 images, 0 corrupt: 100%|██████████| 38584/38584 [00:00<?, ?it/s]
…
